{
 "backend": "tensorflow",
 "class_name": "Sequential",
 "config": {
  "layers": [
   {
    "class_name": "InputLayer",
    "config": {
     "batch_input_shape": [
      null,
      30,
      1
     ],
     "dtype": "float32",
     "name": "lstm_4_input",
     "ragged": false,
     "sparse": false
    }
   },
   {
    "class_name": "LSTM",
    "config": {
     "activation": "tanh",
     "activity_regularizer": null,
     "batch_input_shape": [
      null,
      30,
      1
     ],
     "bias_constraint": null,
     "bias_initializer": {
      "class_name": "Zeros",
      "config": {}
     },
     "bias_regularizer": null,
     "dropout": 0.0,
     "dtype": "float32",
     "go_backwards": false,
     "implementation": 2,
     "kernel_constraint": null,
     "kernel_initializer": {
      "class_name": "GlorotUniform",
      "config": {
       "seed": null
      }
     },
     "kernel_regularizer": null,
     "name": "lstm_4",
     "recurrent_activation": "sigmoid",
     "recurrent_constraint": null,
     "recurrent_dropout": 0.0,
     "recurrent_initializer": {
      "class_name": "Orthogonal",
      "config": {
       "gain": 1.0,
       "seed": null
      }
     },
     "recurrent_regularizer": null,
     "return_sequences": true,
     "return_state": false,
     "stateful": false,
     "time_major": false,
     "trainable": true,
     "unit_forget_bias": true,
     "units": 50,
     "unroll": false,
     "use_bias": true
    }
   },
   {
    "class_name": "Dropout",
    "config": {
     "dtype": "float32",
     "name": "dropout_4",
     "noise_shape": null,
     "rate": 0.2,
     "seed": null,
     "trainable": true
    }
   },
   {
    "class_name": "LSTM",
    "config": {
     "activation": "tanh",
     "activity_regularizer": null,
     "bias_constraint": null,
     "bias_initializer": {
      "class_name": "Zeros",
      "config": {}
     },
     "bias_regularizer": null,
     "dropout": 0.0,
     "dtype": "float32",
     "go_backwards": false,
     "implementation": 2,
     "kernel_constraint": null,
     "kernel_initializer": {
      "class_name": "GlorotUniform",
      "config": {
       "seed": null
      }
     },
     "kernel_regularizer": null,
     "name": "lstm_5",
     "recurrent_activation": "sigmoid",
     "recurrent_constraint": null,
     "recurrent_dropout": 0.0,
     "recurrent_initializer": {
      "class_name": "Orthogonal",
      "config": {
       "gain": 1.0,
       "seed": null
      }
     },
     "recurrent_regularizer": null,
     "return_sequences": true,
     "return_state": false,
     "stateful": false,
     "time_major": false,
     "trainable": true,
     "unit_forget_bias": true,
     "units": 50,
     "unroll": false,
     "use_bias": true
    }
   },
   {
    "class_name": "Dropout",
    "config": {
     "dtype": "float32",
     "name": "dropout_5",
     "noise_shape": null,
     "rate": 0.2,
     "seed": null,
     "trainable": true
    }
   },
   {
    "class_name": "LSTM",
    "config": {
     "activation": "tanh",
     "activity_regularizer": null,
     "bias_constraint": null,
     "bias_initializer": {
      "class_name": "Zeros",
      "config": {}
     },
     "bias_regularizer": null,
     "dropout": 0.0,
     "dtype": "float32",
     "go_backwards": false,
     "implementation": 2,
     "kernel_constraint": null,
     "kernel_initializer": {
      "class_name": "GlorotUniform",
      "config": {
       "seed": null
      }
     },
     "kernel_regularizer": null,
     "name": "lstm_6",
     "recurrent_activation": "sigmoid",
     "recurrent_constraint": null,
     "recurrent_dropout": 0.0,
     "recurrent_initializer": {
      "class_name": "Orthogonal",
      "config": {
       "gain": 1.0,
       "seed": null
      }
     },
     "recurrent_regularizer": null,
     "return_sequences": true,
     "return_state": false,
     "stateful": false,
     "time_major": false,
     "trainable": true,
     "unit_forget_bias": true,
     "units": 50,
     "unroll": false,
     "use_bias": true
    }
   },
   {
    "class_name": "Dropout",
    "config": {
     "dtype": "float32",
     "name": "dropout_6",
     "noise_shape": null,
     "rate": 0.2,
     "seed": null,
     "trainable": true
    }
   },
   {
    "class_name": "LSTM",
    "config": {
     "activation": "tanh",
     "activity_regularizer": null,
     "bias_constraint": null,
     "bias_initializer": {
      "class_name": "Zeros",
      "config": {}
     },
     "bias_regularizer": null,
     "dropout": 0.0,
     "dtype": "float32",
     "go_backwards": false,
     "implementation": 2,
     "kernel_constraint": null,
     "kernel_initializer": {
      "class_name": "GlorotUniform",
      "config": {
       "seed": null
      }
     },
     "kernel_regularizer": null,
     "name": "lstm_7",
     "recurrent_activation": "sigmoid",
     "recurrent_constraint": null,
     "recurrent_dropout": 0.0,
     "recurrent_initializer": {
      "class_name": "Orthogonal",
      "config": {
       "gain": 1.0,
       "seed": null
      }
     },
     "recurrent_regularizer": null,
     "return_sequences": false,
     "return_state": false,
     "stateful": false,
     "time_major": false,
     "trainable": true,
     "unit_forget_bias": true,
     "units": 50,
     "unroll": false,
     "use_bias": true
    }
   },
   {
    "class_name": "Dropout",
    "config": {
     "dtype": "float32",
     "name": "dropout_7",
     "noise_shape": null,
     "rate": 0.2,
     "seed": null,
     "trainable": true
    }
   },
   {
    "class_name": "Dense",
    "config": {
     "activation": "linear",
     "activity_regularizer": null,
     "bias_constraint": null,
     "bias_initializer": {
      "class_name": "Zeros",
      "config": {}
     },
     "bias_regularizer": null,
     "dtype": "float32",
     "kernel_constraint": null,
     "kernel_initializer": {
      "class_name": "GlorotUniform",
      "config": {
       "seed": null
      }
     },
     "kernel_regularizer": null,
     "name": "dense_1",
     "trainable": true,
     "units": 1,
     "use_bias": true
    }
   }
  ],
  "name": "sequential_1"
 },
 "keras_version": "2.12.0",
 "weights": [
  [
   [
    … 